#map = affine_map<(d0, d1, d2, d3) -> (d0, d1, d2, d3)>
module {
  func.func @conv2d_nchw_fchw(%arg0: tensor<1x1x7x7xf32>, %arg1: tensor<1x1x3x3xf32>) -> tensor<1x1x5x5xf32> {
    %0 = bufferization.alloc_tensor() : tensor<1x1x5x5xf32>
    %1 = linalg.conv_2d_nchw_fchw ins(%arg0, %arg1 : tensor<1x1x7x7xf32>, tensor<1x1x3x3xf32>) outs(%0 : tensor<1x1x5x5xf32>) -> tensor<1x1x5x5xf32>
    return %1 : tensor<1x1x5x5xf32>
  }
  func.func @relu(%arg0: tensor<1x1x5x5xf32>) -> tensor<1x1x5x5xf32> {
    %0 = bufferization.alloc_tensor() : tensor<1x1x5x5xf32>
    %cst = arith.constant 0.000000e+00 : f32
    %1 = linalg.generic {indexing_maps = [#map, #map], iterator_types = ["parallel", "parallel", "parallel", "parallel"]} ins(%arg0 : tensor<1x1x5x5xf32>) outs(%0 : tensor<1x1x5x5xf32>) {
    ^bb0(%in: f32, %out: f32):
      %2 = arith.cmpf ogt, %in, %cst : f32
      %3 = arith.select %2, %in, %cst : f32
      linalg.yield %3 : f32
    } -> tensor<1x1x5x5xf32>
    return %1 : tensor<1x1x5x5xf32>
  }
  func.func @main() {
    %cst = arith.constant dense<[[[[… > : tensor<1x1x7x7xf32>
    %cst_0 = arith.constant dense<1.000000e+00> : tensor<1x1x3x3xf32>
    %0 = call @conv2d_nchw_fchw(%cst, %cst_0) : (tensor<1x1x7x7xf32>, tensor<1x1x3x3xf32>) -> tensor<1x1x5x5xf32>
    %1 = call @relu(%0) : (tensor<1x1x5x5xf32>) -> tensor<1x1x5x5xf32>
    return
  }
}

